logs/gaussian/model-BS=128.pt (torch, 3287 bytes, 6 tensors)

h1.weight f4 [16, 2]
000000 56 d6 33 be e7 64 0b 3e 3b 84 05 bf bd 85 c5 3d
       -0.17562231 0.1361271 -0.5215489 0.09644649
000010 ba 9c 40 bf 7d 75 bc 3e 09 83 2b bf 39 ed 37 bf
       -0.75239146 0.36808386 -0.6699682 -0.7184635
000020 66 23 a3 be 4c 6e e5 3e 6e fd dc be 52 7d c1 3d
       -0.31862944 0.44810712 -0.43162102 0.09447731
000030 5e 3d 43 bf 30 8d 17 bf cf e9 d1 be 7d 2a 94 be
       -0.76265514 -0.5919981 -0.40998694 -0.28938666
000040 e1 a1 c7 be e0 c0 1c 3f bb c5 88 be 91 ee 01 3e
       -0.3899069 0.61231804 -0.26713356 0.12688662
000050 6a 75 2b 3f 49 8f 9a 3e 65 7b 21 3e d9 a8 25 3f
       0.66976035 0.30187443 0.15769728 0.64710766
000060 d8 3d 3e be 98 d0 b6 3e d4 98 08 be 72 c5 2f 3f
       -0.18578279 0.3570602 -0.1333955 0.6866065
000070 10 d6 31 3f 64 7e 05 bf f8 6d 43 3f c9 de fe 3e
       0.6946726 -0.5214598 0.76339674 0.49779347

h1.bias f4 [16]
000000 35 af a2 3e 68 08 66 3e 77 c4 0f 3f 65 07 48 3d
       0.31774297 0.22464144 0.56159157 0.048835177
000010 57 2c 16 bf 7c 43 49 be e5 0f ac be 64 f3 9f 3d
       -0.5866141 -0.1965465 -0.33605877 0.07810095
000020 9f 3a 1d be ad f2 da be b7 e4 1a be d8 d5 35 3f
       -0.15354393 -0.42763272 -0.1512631 0.71029425
000030 31 b4 2f bd 41 74 91 bc 84 ef e7 bd 09 38 d9 bc
       -0.042896453 -0.01775563 -0.11324981 -0.026515977

h2.weight f4 [16, 16]
000000 ee e5 3b 3e d4 c5 c5 3d 9d 79 36 3d b5 6b b3 bd
       0.1834943 0.09656873 0.044549573 -0.08760778
000010 14 bb 8c 3d 4d f3 68 3d 3e 9e 33 be b4 b6 b2 be
       0.0687162 0.056872655 -0.17540833 -0.34905016
000020 3a f8 f0 bd 84 bd 56 3e 1e 46 16 3e 0e 17 c4 bd
       -0.117660955 0.20970732 0.14675185 -0.0957471
000030 4d 33 7f 3d 10 b0 9f 3e ad 22 69 be b7 63 0e bd
       0.062304784 0.31189013 -0.22767134 -0.034763064
000040 7d 9d 8b bd 13 14 7c 3d cc fb 9c bc 4e 18 02 3e
       -0.06817148 0.06154258 -0.019163035 0.12704584
000050 e4 27 87 be 5d 65 1d 3e 0f e8 bf 3e d5 05 8f 3e
       -0.26397622 0.15370698 0.37481734 0.27934137
000060 d7 3a 61 be b7 be 4a be 9d 95 5c bc 0b 49 ab bd
       -0.21995102 -0.19799314 -0.013463405 -0.08363541
000070 91 42 93 3d 91 d6 ac be 27 12 04 bd 8e 33 68 3d
       0.07190431 -0.3375745 -0.032243874 0.05668979
000080 3a 44 8a 3d 14 d9 5a bd e8 c6 1d bb f8 34 30 be
       0.067512944 -0.053429678 -0.0024074856 -0.17207706
000090 bf f4 0c be e8 13 11 be e0 7c 9a be 62 27 ac 3d
       -0.13765238 -0.1416775 -0.30173397 0.08405949
0000a0 75 20 28 3e 7f 17 96 3d 2a fb 86 bd ea 57 94 3e
       0.16418631 0.073287 -0.065908745 0.28973323
0000b0 2d 5e ba 3d e9 4e 89 3e 40 e5 cc bd c5 ee 39 3e
       0.09099994 0.26818016 -0.100046635 0.1815749
0000c0 5f 38 89 3e 57 e0 55 3e d7 ca 6a 3e ab 5f b9 3d
       0.2680082 0.2088636 0.2292894 0.0905145
0000d0 cc d1 2b 3e bf 10 2e be 2c 93 29 3e f8 40 d0 bc
       0.1677925 -0.16998576 0.16560048 -0.025421605
0000e0 3f ad d0 bd f6 08 8d bd 2e 1a bc bd 71 92 11 3e
       -0.10189294 -0.06886475 -0.09184681 0.14216019
0000f0 99 9c ba 3d 91 db b8 bd e2 12 21 3e 4c 50 76 be
       0.091119 -0.09026254 0.1572986 -0.24054068
000100 ff 08 1f 3e fd 0c 8f 3c 43 65 6c bc 73 ff 2b 3e
       0.15530775 0.017462248 -0.01442844 0.16796665
000110 e0 d6 57 be 8d 0e 5d 3d ff 33 65 3e ae 5b a6 3e
       -0.21078062 0.053968955 0.22383116 0.3249182
000120 94 c1 f4 bd e3 46 ac 3d 28 fc 0a 3e 71 e7 49 be
       -0.119509846 0.08411958 0.13572752 -0.19717194
000130 90 3d 54 3e 43 2b 5d be bc 98 bd 3d 71 09 94 bc
       0.20726609 -0.21598534 0.092576474 -0.018070908
000140 af 07 e2 3c 4e 3b 14 3e 0f 27 13 be b1 cf 95 bd
       0.027591554 0.14475748 -0.14370368 -0.073150046
000150 d1 07 3f 3b 51 bb 67 be 09 63 4d be 3d 2f 90 be
       0.0029148946 -0.2263005 -0.2005731 -0.2816104
000160 83 54 0b 3e ef 8f 62 3c 90 13 0c 3e 99 f6 18 3c
       0.13606457 0.013828262 0.13679338 0.009336137
000170 65 0b 6d 3c ba 68 e7 3b af 1a 93 3d ac 1a b7 3e
       0.014468049 0.007062045 0.07182824 0.35762537
000180 c0 02 78 3d bc 15 a1 bd 95 f5 05 be 3c 77 17 3e
       0.060549498 -0.07865474 -0.13081963 0.14791578
000190 92 6d 52 be ea 86 2e be 1e cc 06 bd 13 cf 87 3c
       -0.2054961 -0.17043653 -0.032909505 0.016578233
0001a0 42 b2 a1 bc 90 fe 26 3e de 35 bc bb 9e 95 e3 3d
       -0.01973832 0.16308045 -0.005743726 0.111125216
0001b0 4a c4 3d be c1 5c 7b bd 26 9f 74 be 94 48 20 3d
       -0.1853191 -0.061367754 -0.23888835 0.039131716
0001c0 f4 eb 89 3d 3a 93 8c 3e 00 9c 21 be a1 80 af 3e
       0.067344576 0.27456075 -0.15782166 0.34277824
0001d0 2d a3 34 3e e2 b5 5f 3e 5a 67 37 3e d6 ce ac 3e
       0.17640372 0.21846727 0.17910519 0.33751553
0001e0 2d a3 e6 3d 04 56 2e 3e fa 9c 0b be 34 27 94 be
       0.11261592 0.17025 -0.136341 -0.2893616
0001f0 e2 ed 3d bd 47 0d 5b bd b4 fe 4c be 81 bd 87 be
       -0.04636944 -0.05347946 -0.20019037 -0.26511768
000200 15 c9 2a be e4 2b 7b bb e7 87 95 3e 6b 0b 52 3e
       -0.16678269 -0.0038325721 0.29205248 0.20512168
000210 f3 bb 24 3c 60 bc a4 3d e9 60 a3 3e 03 64 a4 bd
       0.010054576 0.08043742 0.31909874 -0.08026888
000220 5e e8 47 be 74 85 2c bd da 86 88 be a4 71 39 3d
       -0.19522235 -0.04211946 -0.26665384 0.04527439
000230 7e 43 44 3e 0d ed a5 be 98 d9 3c be f6 d8 bd be
       0.19166371 -0.32407418 -0.1844238 -0.3707959
000240 46 f5 6d 3d 0e 41 1c 3e 21 06 6d be 08 89 82 be
       0.05809524 0.15259191 -0.23146869 -0.25495172
000250 11 2c b6 3d 3a 23 49 be 02 a0 93 3d c7 b6 61 bd
       0.08895124 -0.19642344 0.072082534 -0.05510595
000260 62 4c 13 bd 7a 6d 68 3c 6a 17 47 3e 3e a4 21 3b
       -0.035961516 0.0141862575 0.19442526 0.0024664546
000270 25 87 30 be 82 37 be 3d 41 dc 4a 3c 3e 54 fd 3d
       -0.17239054 0.09287931 0.012381614 0.123695835
000280 fb c6 be 3b 58 72 5c 3e b0 6b d2 bc b5 97 f5 3d
       0.00582206 0.21527994 -0.025686115 0.119918264
000290 58 c8 ca 3d 80 56 f0 bd 4b 20 59 3e 47 5d 83 3d
       0.09901494 -0.117352486 0.21203725 0.064142756
0002a0 e2 7c bc 3d d1 07 01 be 19 3e d5 bd 0a 9b 78 bd
       0.09203507 -0.12600638 -0.10412235 -0.06069473
0002b0 fe b2 5d be 7d 1f 89 be 02 45 c0 3d f0 43 41 be
       -0.21650311 -0.26781836 0.09388162 -0.18873572
0002c0 ca a8 01 3e 8f d1 91 be da 9d 18 be 87 4b b1 be
       0.12662044 -0.28480193 -0.14903966 -0.34627935
0002d0 a1 aa 02 3e 93 2e ea bc 5e a8 40 be 4b 25 1c be
       0.12760402 -0.028586661 -0.18814227 -0.15248601
0002e0 21 31 16 be 25 e1 a8 3d 84 ce 01 3e 26 c3 99 bd
       -0.14667179 0.08246068 0.12676436 -0.07507925
0002f0 87 66 06 3e 62 ee c0 3d c1 2c 5f be 74 6d 83 3e
       0.13125049 0.09420468 -0.21794416 0.25669444
000300 97 5c c9 3d a3 2c c2 bd 15 6b 56 be 30 de 03 be
       0.09832113 -0.0948117 -0.20939286 -0.12877727
000310 a2 28 4b 3e 85 26 49 3e 01 3b a8 be 1b 5a 67 be
       0.19839719 0.196436 -0.32857516 -0.22592966
000320 6f a8 69 3e cb d6 f6 3d 5c 02 8a 3e a5 2a 10 bd
       0.22818159 0.12052687 0.26954925 -0.03519692
000330 c7 90 72 3e 7b 2a ed bd 02 0c 76 bb 5b 36 fa 3d
       0.2368804 -0.11580368 -0.0037543778 0.12217399
000340 dd 25 87 3d c2 f0 17 be cf d2 83 3e 2d 64 c6 3e
       0.06599019 -0.14837936 0.25746772 0.38748303
000350 83 a9 48 be a5 0a 0a 3d de f5 1e 3c 11 cd b4 3e
       -0.19595914 0.033701558 0.009702174 0.35312703
000360 5b 11 c0 3d 4d fe 0e 3e 7f 1a 13 bd 2a f2 ef bd
       0.0937831 0.13964196 -0.03591394 -0.11716111
000370 a9 35 da 3d a0 68 b9 bd 7e fc e5 bd a9 0a 2f 3c
       0.10654766 -0.09053159 -0.112298 0.010683694
000380 43 a8 32 3d cd 99 e9 bd c6 82 d9 bd ef 8d ba be
       0.043617498 -0.11406288 -0.10620646 -0.36436412
000390 4b 0e 64 bd ad 00 0a be 63 ae 8f be 08 2c af be
       -0.055677693 -0.1347682 -0.28062734 -0.3421328
0003a0 42 c8 6e 3e 11 c7 65 be 41 97 bc 3e 2f c9 16 bd
       0.2331858 -0.22439219 0.36834148 -0.036812957
0003b0 e6 ee b5 3b 45 fc 98 3e 68 16 bf 3d f7 ef 50 3d
       0.0055521606 0.29879966 0.093304455 0.0510101
0003c0 4f fc 3b be 3f 2a aa bd c5 68 5a 3e d8 c0 2e 3c
       -0.18357967 -0.08308839 0.21329029 0.010666095
0003d0 35 e2 49 3e 33 e7 0f bd ec 66 97 3d 37 24 3b 3e
       0.19715197 -0.035132598 0.07392678 0.18275534
0003e0 f7 69 80 bd 67 0a 3c bc 89 c3 cd 3d df d1 e5 3c
       -0.06270211 -0.0114770895 0.10047061 0.028054176
0003f0 9a 92 ef bc 76 c0 1d 3d 9f 24 54 3e 3a 37 37 bc
       -0.02924471 0.038513623 0.20717095 -0.011182601

h2.bias f4 [16]
000000 ea 2f 89 bd fc bb 94 3d 93 30 d9 bc b2 bd 57 be
       -0.06698592 0.07262418 -0.02651242 -0.21068457
000010 d7 5c e4 bd b7 85 e6 3d e4 44 fb bb ae 7d 86 3d
       -0.1115052 0.11255973 -0.0076681245 0.0656694
000020 26 04 ea bd cc 6b 78 3e d9 d5 d3 bd 57 cc 98 3d
       -0.114265725 0.24259871 -0.103435226 0.0746085
000030 a3 a8 ec bd a4 82 0d be ef 70 f6 3d b6 66 a8 bd
       -0.115556024 -0.13819367 0.12033259 -0.082227156

output.weight f4 [2, 16]
000000 87 b1 36 be 11 52 ae bd e0 d1 12 3e 3d 71 1e 3e
       -0.17841159 -0.08511747 0.14337873 0.15472884
000010 80 42 29 3e a1 97 84 be a5 5a b2 3d d3 09 e6 3d
       0.16529274 -0.25896934 0.08708695 0.112323426
000020 11 24 e6 bd 6b a2 8b bc 82 78 98 3d 46 c4 49 be
       -0.11237348 -0.01704522 0.0744486 -0.19703779
000030 5f 12 1c be d7 12 60 3e 96 3e be bd 26 ba b6 bc
       -0.15241383 0.21882187 -0.09289281 -0.02230556
000040 2b b1 0d be 7d 8e 2a be 5b c6 89 3e 35 de b5 3d
       -0.13837115 -0.16655917 0.26909146 0.08880273
000050 26 cd 57 bd 82 a7 4a 3e 50 d0 b4 bd ee 35 89 be
       -0.05268588 0.19790462 -0.08828795 -0.26798958
000060 2a 9c 9b be a8 90 01 3e 82 b5 f9 bd 38 aa 5c 3e
       -0.3039258 0.12652838 -0.12192823 0.21549308
000070 08 5e 85 3e 13 2c 8a 3d cc 31 93 3e 41 50 1b bd
       0.26048303 0.06746688 0.2874893 -0.037918333

output.bias f4 [2]
000000 e5 ff 53 3e 2a f9 dd bd
       0.20703085 -0.1083854
